EarlyTestCode/lenet/lenet_model.pth (torch, 250160 bytes, 10 tensors)

conv1.weight f4 [6, 1, 3, 3]
0.24838105 0.32206622 0.29518458 -0.08068987 -0.039635107 -0.093804955 -0.20409381 -0.27060947
-0.30047205 0.0027316832 -0.31377158 -0.3592132 -0.30756938 -0.2506398 -0.032709923 0.0712568
0.013889211 0.38997275 -0.03404807 0.09157545 -0.22971621 0.22672239 -0.17780738 -0.023753343
0.24614187 -0.02122688 -0.31941357 -0.18753569 0.024884015 0.030539922 0.00043030918 0.24467401
-0.041001488 -0.12600845 0.26081276 -0.004620496 -0.18347584 -0.5962304 -0.056985807 0.013206206
0.24579164 -0.13960537 0.296504 0.24560578 -0.113456614 -0.278902 0.07781204 0.3096044
-0.021232959 0.03191431 -0.030698948 -0.021667937 -0.09017018 -0.042683553
00000000: 9a57 7e3e dde5 a43e 6f22 973e bb40 a5bd
00000010: 6c58 22bd d01c c0bd f8fd 50be 538d 8abe
00000020: 79d7 99be 0a06 333b aba6 a0be cbea b7be
00000030: bc79 9dbe dc53 80be d7fa 05bd 16ef 913d
00000040: 938f 633c 82aa c73e fd75 0bbd e98b bb3d
00000050: ba3a 6bbe ea29 683e 2313 36be 5f96 c2bc
00000060: 9d0c 7c3e fee3 adbc 2d8a a3be 5b09 40be
00000070: 90d9 cb3c dc2e fa3c 1f9b e139 d38b 7a3e
00000080: 2df1 27bd 5c08 01be 4089 853e 8867 97bb
00000090: 17e1 3bbe 8ea2 18bf f369 69bd d85e 583c
000000a0: ceb0 7b3e b6f4 0ebe 5fcf 973e 1580 7b3e
000000b0: f15b e8bd 3ecc 8ebe eb5b 9f3d 7884 9e3e
000000c0: bef0 adbc 94b8 023d 5c7c fbbc f580 b1bc
000000d0: 25ab b8bd f3d4 2ebd

conv1.bias f4 [6]
-0.005541609 -0.22146387 0.14580871 0.054234702 0.024233596 -0.084993884
00000000: 6396 b5bb 6dc7 62be e14e 153e 3525 5e3d
00000010: 8985 c63c 4611 aebd

conv2.weight f4 [16, 6, 5, 5]
-0.087629445 -0.17533192 -0.3138544 -0.09897989 -0.021922033 -0.114442684 -0.25792363 -0.16187468
0.11188368 0.017824996 -0.058012027 -0.29283336 -0.1595495 0.058558553 -0.10978861 0.0017905491
-0.11322009 -0.016446102 0.13601156 0.03141314 0.099735565 -0.07764854 -0.028263375 0.06635724
0.011423976 -0.014550582 0.13912188 0.028249597 0.03514454 0.055426273 -0.038498115 0.06640047
0.06786656 -0.1031427 -0.09015844 -0.043921128 -0.01795977 -0.11713781 -0.029699232 0.12080901
0.056463547 -0.079032935 -0.2798627 -0.010494014 -0.018099131 0.09747214 -0.11768104 -0.21898009
-0.033228356 0.006998194 0.28272507 -0.027588127 -0.11239277 0.079248294 0.031140473 0.16960219
-0.06817702 -0.0020956167 0.14915434 -0.038922504 0.03302186 -0.065131016 -0.0106531 0.0572061
0.048423264 0.0029180497 -0.02593279 -0.014471343 0.03840093 0.00872324 0.060233947 -0.037540253
-0.03593708 0.0963088 -0.027725438 -0.17456 0.09159779 0.16427305 -0.068266995 0.025306432
-0.22646572 0.05491866 0.086619884 -0.06016863 -0.18832757 -0.06683782 0.038123913 0.06503659
-0.06408826 -0.05529069 0.07258491 0.11718631 0.07877136 -0.08536079 -0.11640372 -0.064718604
-0.025864275 0.00040327475 -0.083531655 -0.1712749 -0.12813492 -0.11152934 0.045883738 -0.051382866
-0.10191442 -0.29663128 -0.010914106 0.07498663 -0.070354626 -0.18510479 -0.08500697 0.04371868
-0.049137942 -0.011103861 0.03515501 0.042994086 -0.039562874 -0.16857219 0.05768029 0.035999354
0.028529996 -0.16267121 -0.20446506 -0.010300171 -0.062060714 -0.13881534 0.023807649 -0.062375493
-0.045708768 -0.17207326 -0.2246699 0.059127185 -0.020596197 0.0004387238 -0.09106877 -0.20581299
0.09305939 0.08314467 -0.3405216 -0.21623799 -0.11504559 0.038914833 0.025830507 -0.12659003
-0.076093175 0.037623134 0.12063793 0.022221325 -0.09844625 -0.083833106 0.07276847 -0.0030291283
-0.15706955 -0.22174464 0.075370945 -0.0029779458 -0.088194944 -0.19588952 -0.25905272 -0.1019892
0.07719456 -0.0055512763 -0.088329695 -0.07320189 -0.14366062 -0.0028031804 -0.05305064 -0.10723693
0.05218287 0.15657084 0.029196838 -0.0911531 -0.18734042 -0.0063262293 0.09764613 -0.04416995
-0.060972646 -0.28281882 -0.029978516 -0.13330139 -0.050458904 -0.21968818 -0.28170276 -0.21244638
-0.039112676 0.111505315 -0.09514093 -0.10915708 -0.10797838 0.0022575525 0.053118687 0.003650939
0.06173427 -0.030412683 -0.18583246 0.1532558 0.16653515 0.155488 -0.08729842 -0.12996991
0.12528494 0.0656193 -0.06952171 0.11005868 0.09868479 0.16994818 0.057444636 -0.08196406
0.116977826 0.1486213 0.1141906 0.025784867 -0.11753591 0.0078099906 0.0761946 -0.1474353
-0.08618454 -0.05257933 0.025894882 0.038017605 -0.12696156 -0.12002825 -0.08970684 -0.032287918
0.040429097 -0.13074653 -0.07964727 0.095104866 0.083529875 -0.011593779 -0.08037603 -0.082905605
0.051280227 0.072368905 0.04716632 -0.030090977 -0.112212785 -0.051999792 0.007928726 0.033678684
-0.051150937 -0.014510856 -0.010547343 0.019556364 -0.03144736 0.002099856 0.03900916 0.11898576
0.0760394 0.009858502 -0.05623819 -0.13947299 -0.23985398 -0.1986182 -0.08289915 -0.03358053
00000000: 1177 b3bd 368a 33be 86b1 a0be f8b5 cabd
00000010: d695 b3bc ed60 eabd 910e 84be 7ac2 25be
00000020: 4523 e53d ba05 923c 059e 6dbd 41ee 95be
00000030: f260 23be 18db 6f3d dad8 e0bd dcb0 ea3a
00000040: efdf e7bd fab9 86bc 9d46 0b3e 11ab 003d
00000050: 2942 cc3d 3306 9fbd 9888 e7bc 4ee6 873d
00000060: a12b 3b3c 9065 6ebc f775 0e3e b36b e73c
00000070: b9f3 0f3d a906 633d 33b0 1dbd f8fc 873d
00000080: 9ffd 8a3d 7b3c d3bd fda4 b8bd a4e6 33bd
00000090: 5e20 93bc f3e5 efbd ce4b f3bc b76a f73d
000000a0: 5246 673d 05dc a1bd 2a4a 8fbe 16ef 2bbc
000000b0: a144 94bc 799f c73d c202 f1bd 513c 60be
000000c0: 751a 08bd 1b51 e53b 57c1 903e 7f00 e2bc
000000d0: 2e2e e6bd ee4c a23d 4e1a ff3c 32ac 2d3e
000000e0: 65a0 8bbd 9d56 09bb eabb 183e 346d 1fbd
000000f0: ee41 073d 6963 85bd 578a 2ebc f250 6a3d
00000100: 7957 463d c03c 3f3b 0171 d4bc 3619 6dbc
00000110: 4b4a 1d3d eceb 0e3c dfb7 763d cfc3 19bd
00000120: c232 13bd 8c3d c53d 7520 e3bc dbbf 32be
00000130: 9f97 bb3d 3237 283e 91cf 8bbd 6f4f cf3c
00000140: a1e6 67be 64f2 603d c465 b13d 6273 76bd
00000150: f1d8 40be 44e2 88bd d227 1c3d e731 853d
00000160: b540 83bd 7e78 62bd 66a7 943d 60ff ef3d
00000170: e152 a13d a3d1 aebd 1365 eebd 308b 84bd
00000180: 51e1 d3bc 9f6e d339 a512 abbd b062 2fbe
00000190: cd35 03be 7f69 e4bd 96f0 3b3d d776 52bd
000001a0: 82b8 d0bd 0ee0 97be 14d1 32bc 9792 993d
000001b0: 1616 90bd 1c8c 3dbe 2218 aebd 5c12 333d
000001c0: de44 49bd f8ec 35bc b3fe 0f3d 911a 303d
000001d0: ae0c 22bd 309e 2cbe 2b42 6c3d 0f74 133d
000001e0: bdb7 e93c 4893 26be 4a5f 51be 0cc2 28bc
000001f0: 6033 7ebd 9c25 0ebe 4208 c33c 727d 7fbd
00000200: 1e39 3bbd f933 30be de0f 66be 592f 723d
00000210: 5bb9 a8bc 8304 e639 4382 babd a4c0 52be
00000220: ec95 be3d c147 aa3d d958 aebe 7e6d 5dbe
00000230: 069d ebbd 2965 1f3d 809a d33c d1a0 01be
00000240: bdd6 9bbd b71a 1a3d 0511 f73d 7f09 b63c
00000250: 309e c9bd b1b0 abbd a307 953d 5784 46bb
00000260: d7d6 20be 0711 63be 155c 9a3d a429 43bb
00000270: 8d9f b4bd 4397 48be 8fa2 84be b7df d0bd
00000280: 2e18 9e3d 7be7 b5bb 33e6 b4bd dfea 95bd
00000290: c51b 13be 90b5 37bb a14b 59bd 099f dbbd
000002a0: b5bd 553d 1b54 203e 352e ef3c 7aae babd
000002b0: 2bd6 3fbe 424c cfbb b2fa c73d 8deb 34bd
000002c0: 74be 79bd a1cd 90be 8195 f5bc 2980 08be
000002d0: ffad 4ebd f0f5 60be 583b 90be 8b8b 59be
000002e0: 9d34 20bd e65c e43d 3fd9 c2bd bf8d dfbd
000002f0: c523 ddbd 72f3 133b fb92 593d 9844 6f3b
00000300: 13dd 7c3d 0524 f9bc dd4a 3ebe 17ef 1c3e
00000310: 3188 2a3e 3f38 1f3e 84c9 b2bd d516 05be
00000320: b24a 003e 6963 863d 6661 8ebd 7266 e13d
00000330: 401b ca3d e506 2e3e 114b 6b3d c6dc a7bd
00000340: 1292 ef3d 2f30 183e c3dc e93d c93a d33c
00000350: abb6 f0bd f3ea ff3b ea0b 9c3d 47f9 16be
00000360: 8581 b0bd 6c5d 57bd 8121 d43c 59b8 1b3d
00000370: 3602 02be 5fd1 f5bd 38b8 b7bd 5640 04bd
00000380: fb98 253d 6be2 05be 1c1e a3bd 57c6 c23d
00000390: b611 ab3d d5f3 3dbc 309c a4bd 6aca a9bd
000003a0: 370b 523d 2636 943d 7931 413d 5a81 f6bc
000003b0: d1cf e5bd bcfd 54bd 7de7 013c a9f2 093d
000003c0: a583 51bd f1be 6dbc c3ce 2cbc ab34 a03c
000003d0: f2ce 00bd bd9d 093b 12c8 1f3d ceae f33d
000003e0: 8cba 9b3d 8e85 213c 045a 66bd 02d2 0ebe
000003f0: 489c 75be 9262 4bbe 08c7 a9bd bd8b 09bd

conv2.bias f4 [16]
0.05635832 -0.095028624 -0.101188175 -0.09215887 -0.09385036 -0.015301478 -0.05759469 -0.1798246
0.02387273 -0.11989008 -0.005944098 -0.088835195 -0.063515626 0.009893345 -0.024270812 -0.01746266
00000000: fbd7 663d 5e9e c2bd bf3b cfbd cabd bcbd
00000010: 9e34 c0bd 0db3 7abc 69e8 6bbd f123 38be
00000020: be90 c33c ee88 f5bd b5c6 c2bb 3aef b5bd
00000030: 7b14 82bd b217 223c 95d3 c6bc da0d 8fbc

fc1.weight f4 [120, 400]
-0.018929916 -0.01076366 0.034442306 0.024852224 0.02921925 0.0040065236 0.070875935 0.048225343
-0.054262474 -0.049791615 0.0014544203 0.03657649 -0.0040351143 -0.0322288 0.040193014 -0.014992817
-0.056927457 0.09481485 0.07676159 0.15303347 0.014519057 0.020540863 0.053514794 0.08606097
0.11859234 -0.032303043 -0.047202025 -0.02403424 0.043835334 0.0119094 -0.0018317086 0.023954723
-0.06548016 -0.10781157 0.021473642 0.04086203 0.043345653 0.07051991 0.102006465 0.008110044
0.047374364 -0.028591232 0.073734134 0.09511695 0.06785698 -0.036823418 -0.07385088 -0.011399398
0.017407613 0.032390065 -0.006934165 -0.08648532 -0.06665527 0.034402363 0.013929729 -0.03303805
-0.05542783 0.030988278 -0.116672 -0.023812352 -0.015147598 0.018253725 -0.02131868 -0.01666618
-0.0040421817 0.04306678 0.057280526 0.109204255 0.12467046 -0.054725803 0.026459685 -0.02384961
0.022422764 0.061377313 0.06677763 -0.004975221 0.07439116 0.085787885 0.0738429 0.10770049
-0.047922056 -0.007678039 -0.0041740136 0.027990812 -0.0143101495 0.0034905602 0.052343536 0.009907896
-0.044253312 -0.08164323 0.09921972 0.11103003 0.041749444 0.07776125 0.03142177 0.000987588
0.112867475 0.06333667 0.042333595 0.018647341 -0.020926626 0.07327465 0.049043115 0.03196884
0.006827032 0.05591876 0.038753033 0.049371704 0.07122839 0.058630344 0.030506063 0.009150589
-0.025330624 -0.103058964 -0.095607735 0.055029288 0.034607768 0.005216004 -0.021414878 -0.050622694
-0.06706227 -0.08819133 -0.057956226 -0.03390126 -0.004525198 -0.022784779 -0.05141809 -0.06786838
-0.0104595525 0.025612038 -0.035776906 0.06001793 0.056943 -0.06616535 -0.09773801 -0.016599314
0.04699292 0.052483223 -0.09476468 0.020825863 -0.017323017 -0.13634798 0.06481067 0.104457855
0.06597715 -0.07653115 0.0027107494 0.16219331 0.07059599 0.03443668 0.015375617 -0.02985364
0.007626281 0.07396942 -0.003033136 0.022035768 -0.026150677 0.015261078 0.11863016 0.057311244
0.004449588 0.0718456 0.10340489 0.0949816 0.09953357 -0.0017434707 0.016053375 0.022071345
-0.024554461 -0.05327897 0.029297056 -0.007665079 -0.0046751816 -0.01823045 -0.014614666 0.08887472
0.038932733 0.02635568 0.0014667737 0.0145759275 -0.051198427 -0.026107883 0.08244072 0.01728654
0.0027406171 0.020005906 -0.010816611 -0.03439926 -0.08099683 -0.05713674 -0.0082840165 -0.06475142
-0.106777646 -0.02333772 0.0030087319 -0.011865013 -0.06203184 -0.046420023 0.012719351 0.037770115
-0.011638704 0.053648315 0.0033608535 0.112764835 0.13083673 -0.0004920154 0.03800788 0.020338079
0.0048507713 0.037628114 0.12860546 0.08236224 0.054631196 -0.044433624 -0.06188537 0.0051742406
0.06769152 0.020350628 0.03313318 -0.045273073 -0.021393972 -0.0423196 -0.006616285 -0.007675209
-0.12604986 0.054073565 0.097799055 0.08892853 -0.034145977 0.033097584 0.00051690364 -0.006039661
-0.050956838 0.031738576 0.022796128 0.039942488 0.08984356 0.03349528 0.093268245 -0.018083524
0.0635583 0.08754849 0.051468674 -0.060932126 -0.21535583 -0.034988247 0.04131072 -0.006713722
0.07044782 0.009746709 0.08572086 0.07474394 -0.023766704 -0.012800935 -0.07625884 -0.018141674
00000000: e912 9bbc 105a 30bc 6013 0d3d e496 cb3c
00000010: 355d ef3c 2849 833b 6727 913d f087 453d
00000020: 5442 5ebd 4bf2 4bbd 3fa2 be3a 3bd1 153d
00000030: fe38 84bb 5902 04bd 6ea1 243d 6fa4 75bc
00000040: c42c 69bd 4a2e c23d 2e35 9d3d ceb4 1c3e
00000050: 57e1 6d3c 5045 a83c 5432 5b3d bc40 b03d
00000060: 8ae0 f23d 3250 04bd e956 41bd 74e3 c4bc
00000070: ae8c 333d a51f 433c f115 f0ba b23c c43c
00000080: 761a 86bd 50cc dcbd 7ee9 af3c f25e 273d
00000090: 368b 313d be6c 903d c4e8 d03d fddf 043c
000000a0: 9f0b 423d 2938 eabc ec01 973d adcc c23d
000000b0: 9af8 8a3d 27d4 16bd 213f 97bd 8ac4 3abc
000000c0: 699a 8e3c 72ab 043d fe37 e3bb 371f b1bd
000000d0: 8f82 88bd 7ee9 0c3d 8539 643c e852 07bd
000000e0: 4b08 63bd 21db fd3c bbf1 eebd 1f12 c3bc
000000f0: a22d 78bc d688 953c 83a4 aebc 8387 88bc
00000100: 4774 84bb cb66 303d fc9e 6a3d 7ba6 df3d
00000110: 3a53 ff3d 2a28 60bd fbc1 d83c 4260 c3bc
00000120: f2af b73c c766 7b3d b6c2 883d 2e07 a3bb
00000130: 645a 983d 8fb1 af3d f23a 973d 1392 dc3d
00000140: eb49 44bd 0f98 fbbb 2ac6 88bb fd4c e53c
00000150: 1e75 6abc e2c1 643b 2d66 563d ba54 223c
00000160: f642 35bd 9134 a7bd b533 cb3d b663 e33d
00000170: 7701 2b3d 4a41 9f3d 1db4 003d f471 813a
00000180: 1027 e73d a8b6 813d fe65 2d3d 4fc2 983c
00000190: 516e abbc 0511 963d 6fe1 483d c2f1 023d
000001a0: 4cb5 df3b 120b 653d 80bb 1e3d fc39 4a3d
000001b0: 31e0 913d 5f26 703d dae7 f93c 5aec 153c
000001c0: 2b82 cfbc 9410 d3bd fdcd c3bd 6466 613d
000001d0: e0c0 0d3d 03eb aa3b 416e afbc be59 4fbd
000001e0: f257 89bd a89d b4bd 8263 6dbd 0cdc 0abd
000001f0: 1d48 94bb 25a7 babc c69b 52bd 94fe 8abd
00000200: 8b5e 2bbc 56d0 d13c ce8a 12bd 5cd5 753d
00000210: 103d 693d b381 87bd de2a c8bd 49fb 87bc
00000220: a67b 403d a6f8 563d fc13 c2bd 009b aa3c
00000230: 00e9 8dbc ce9e 0bbe 75bb 843d 00ee d53d
00000240: 071f 873d 5dbc 9cbd d4a6 313b 0116 263e
00000250: a194 903d 7a0d 0d3d 03ea 7b3c 9f8f f4bc
00000260: e2e5 f93b 477d 973d 94c7 46bb 5b84 b43c
00000270: f239 d6bc 9a09 7a3c 5ff4 f23d 32bf 6a3d
00000280: d9cd 913b c923 933d f1c5 d33d b785 c23d
00000290: 42d8 cb3d 2b85 e4ba 5e82 833c f7ce b43c
000002a0: 7026 c9bc 0d3b 5abd 6100 f03c 582b fbbb
000002b0: 4432 99bb 0658 95bc 5a72 6fbc f303 b63d
000002c0: ee77 1f3d dee7 d73c c240 c03a dfcf 6e3c
000002d0: 71b5 51bd 33e0 d5bc aed6 a83d 809c 8d3c
000002e0: ed9b 333b 6de3 a33c 2838 31bc 3de6 0cbd
000002f0: aae1 a5bd 3708 6abd afb9 07bc 649c 84bd
00000300: 3dae dabd bf2e bfbc 252e 453b 7965 42bc
00000310: 1915 7ebd ec22 3ebd d364 503c d6b4 1a3d
00000320: 43b0 3ebc 56be 5b3d c441 5c3b 40f1 e63d
00000330: 10fa 053e 98fa 00ba 27ae 1b3d 0b9c a63c
00000340: 38f3 9e3b f01f 1a3d 26b1 033e 89ad a83d
00000350: f6c4 5f3d 0800 36bd 847b 7dbd ad8c a93b
00000360: daa1 8a3d 5cb6 a63c a8b6 073d 4270 39bd
00000370: 6942 afbc 5157 2dbd 6ccd d8bb 5280 fbbb
00000380: 3713 01be 3e7c 5d3d df4a c83d 2920 b63d
00000390: a7dc 0bbd 5591 073d d180 073a 59e8 c5bb
000003a0: 1eb8 50bd 4f00 023d f2be ba3c bc9a 233d
000003b0: e6ff b73d 5932 093d 6c03 bf3d e623 94bc
000003c0: db2a 823d 9f4c b33d d1d0 523d f793 79bd
000003d0: 3d86 5cbe d64f 0fbd 6e35 293d c8fe dbbb
000003e0: f246 903d a9b0 1f3c 6b8e af3d 5a13 993d
000003f0: 64b2 c2bc 03bb 51bc 982d 9cbd d99d 94bc

fc1.bias f4 [120]
-0.14508873 -0.11065217 -0.0687916 -0.14380594 -0.016490519 -0.030356474 -0.025099214 -0.1123578
-0.19611563 -0.061476346 -0.061520766 -0.030072002 -0.2214334 -0.031457752 -0.028401855 -0.12525056
-0.06037701 -0.14267194 -0.16036755 -0.070534445 -0.10275255 -0.18495393 -0.14084548 -0.08704197
-0.13149658 -0.09091171 -0.12209007 -0.14784098 -0.08147366 -0.007885771 -0.12739117 -0.17842981
-0.13990119 -0.053696547 -0.050501496 -0.13263452 -0.12651375 -0.11773689 -0.12911236 -0.068098195
-0.1453359 -0.1422186 -0.1107098 -0.14116782 -0.10350374 -0.043545157 -0.16724655 -0.10855163
-0.09783173 -0.12452054 0.0019522428 -0.10628466 -0.104604736 -0.1542371 -0.09240036 -0.09958271
-0.06015456 -0.014507392 -0.07933635 -0.11880225 -0.14224827 -0.022058373 -0.18953611 -0.13601694
-0.13715066 -0.09765343 -0.0939366 -0.034507442 -0.13843966 -0.16752382 -0.10577378 -0.15830447
-0.1438387 -0.033416215 -0.12961978 -0.15083437 -0.07811766 -0.06821853 -0.06216936 -0.014989375
-0.06669344 -0.10941588 -0.10957628 -0.08100515 -0.028963322 -0.10212559 -0.052453496 -0.0036295645
-0.1209103 -0.13597937 -0.08475522 -0.063334554 -0.16661586 -0.034375325 -0.06095192 -0.03286317
-0.16610703 -0.008942987 -0.022458617 -0.08693721 -0.091243096 0.024577795 -0.12539017 -0.042381197
0.010494678 -0.08930836 -0.11908259 -0.19737922 -0.17751583 -0.11068633 -0.09702288 -0.109250806
0.002129384 -0.061565533 -0.17680962 -0.029303547 -0.069316685 -0.08186617 -0.025252005 -0.048891805
00000000: 2492 14be 9b9d e2bd 9ce2 8cbd dd41 13be
00000010: 2017 87bc 24ae f8bc de9c cdbc d91b e6bd
00000020: 89d2 48be 9fce 7bbd 33fd 7bbd 8f59 f6bc
00000030: 70bf 62be d8d9 00bd 02ab e8bc af41 00be
00000040: e24d 77bd 9818 12be 6437 24be 5d74 90bd
00000050: ee6f d2bd 9064 3dbe cc39 10be 0f43 b2bd
00000060: 0aa7 06be eb2f babd 5c0a fabd a063 17be
00000070: aadb a6bd 5233 01bc d572 02be 4eb6 36be
00000080: 4242 0fbe e9f0 5bbd a8da 4ebd 58d1 07be
00000090: d28c 01be 0a20 f1bd 0836 04be 1177 8bbd
000000a0: efd2 14be c1a1 11be d2bb e2bd 4c8e 10be
000000b0: c5f9 d3bd 685c 32bd ae42 2bbe 5150 debd
000000c0: 015c c8bd a004 ffbd 66e2 ff3a c6ab d9bd
000000d0: 023b d6bd 55f0 1dbe 663c bdbd 05f2 cbbd
000000e0: a164 76bd 6ab0 6dbc 197b a2bd 984e f3bd
000000f0: 88a9 11be c3b3 b4bc c115 42be 0648 0bbe
00000100: 3971 0cbe 86fe c7bd d561 c0bd ad57 0dbd
00000110: 20c3 0dbe 5d8b 2bbe ec9f d8bd 911a 22be
00000120: 744a 13be 71df 08bd 0cbb 04be 5374 1abe
00000130: 27fc 9fbd 28b6 8bbd 4da5 7ebd ff95 75bc
00000140: 9296 88bd 6f15 e0bd 8769 e0bd 07e6 a5bd
00000150: 7d44 edbc 3927 d1bd 7ad9 56bd fddd 6dbb
00000160: d29f f7bd 2d3e 0bbe 2594 adbd 8cb5 81bd
00000170: 599d 2abe 24cd 0cbd b8a8 79bd 889b 06bd
00000180: f617 2abe 9b85 12bc 22fb b7bc 230c b2bd
00000190: a9dd babd 5f57 c93c 4866 00be e897 2dbd
000001a0: dff1 2b3c 4de7 b6bd 93e1 f3bd c71d 4abe
000001b0: b6c6 35be 84af e2bd efb3 c6bd e3be dfbd
000001c0: 238d 0b3b 242c 7cbd 950d 35be fe0d f0bc
000001d0: e8f5 8dbd 73a9 a7bd 4bdd cebc c642 48bd

fc2.weight f4 [84, 120]
-0.0010183122 0.035687875 0.039300077 -0.13520536 -0.062478535 0.037612677 0.00987555 -0.14778219
-0.048272215 -0.051691186 0.0051824036 -0.13096635 0.0031267395 -0.07483732 -0.06802478 0.110041425
-0.06265757 0.049702913 -0.017497292 -0.11573181 0.08230027 0.12423959 0.04384433 0.08432473
0.06764332 -0.06781166 0.018767575 -0.04880372 -0.11767718 -0.07461484 -0.0068696765 -0.103649296
0.03781457 -0.07301919 -0.09753431 0.059375532 0.17784892 0.081125736 0.03767861 0.082544036
0.05044048 -0.0022282754 -0.18323919 0.025139473 0.116993144 0.0073580192 0.058141455 0.09799244
0.094141886 -0.022144746 -0.09002041 0.18688555 -0.017858807 0.112025015 -0.11795966 0.086410314
-0.011573979 0.05864374 0.080065094 -0.035749733 -0.037545837 -0.09905298 0.097305536 -0.040912893
0.14710213 0.16682725 0.10840211 -0.03647727 -0.08257741 -0.040827986 -0.14054781 -0.014080684
-0.1427396 0.12536556 0.12738417 0.14178249 0.07792725 0.11558329 0.07088759 -0.09689128
0.204673 -0.02259437 -0.1933948 0.053151734 0.06746414 -0.02688733 0.030208608 0.18804274
-0.15651613 -0.12087654 0.026709512 -0.013304373 0.040501356 0.042115856 -0.07300207 0.06852503
-0.044056453 -0.059396405 0.03628634 -0.1858309 -0.111721955 -0.118771136 0.06245748 -0.03865885
0.020464588 0.13257353 0.064422436 -0.09227485 0.0585961 -0.06273616 0.034072448 0.09717747
-0.024738409 -0.14521484 -0.052401904 0.056016088 -0.010587012 -0.05340784 -0.097254135 0.10853468
0.014845032 -0.10675816 -0.04105807 0.103446625 -0.15581636 -0.044721957 -0.081970245 0.09272659
0.12415971 0.03644557 -0.07089911 -0.015434484 0.15218887 -0.054622553 0.03332942 -0.043414563
0.09181747 0.1585285 0.063396834 -0.10741098 0.0409576 0.0026450988 -0.0456566 -0.060098756
-0.11729556 -0.03268266 0.16238143 -0.07958293 0.101875976 -0.09245844 -0.11207042 0.021783313
0.2007402 0.023329813 -0.091770515 -0.094997354 -0.04671106 0.06588907 0.0011038998 -0.059602965
0.13003811 0.026215332 0.0025420326 -0.15370338 0.014066424 0.043711077 0.24210185 -0.009760071
0.14736988 0.025066152 0.034491852 -0.10153608 -0.18396327 -0.12498163 -0.014805534 -0.216224
0.048602488 -0.020887198 0.14786623 0.013373998 -0.119625784 -0.139773 0.22069192 0.014203251
0.076752804 -0.055014443 0.09799697 -0.110484324 -0.1220006 -0.010024914 0.07740928 -0.031214893
0.13588987 -0.11619946 -0.0916201 0.053398594 -0.06448226 -0.13891625 -0.018024363 -0.09279811
0.14354478 -0.15544342 0.07633962 -0.028533071 0.10424494 0.010379048 0.0068544797 0.09891348
0.01373918 0.030299552 -0.09935047 -0.05582383 0.20014408 0.012484226 0.005369893 0.06733005
-0.012773502 -0.028136104 0.055002835 0.030516613 -0.08613532 -0.0040749484 0.0010444184 0.0008575675
0.04893603 -0.14086217 0.14941359 0.14747739 -0.017169569 -0.0057876124 0.058442358 0.14425635
0.038851023 -0.1329467 0.253645 -0.17797248 -0.13583258 0.0495847 -0.022698032 -0.011637812
0.23434761 0.1259973 -0.24727058 0.073960915 -0.06322284 0.15939614 -0.039362453 0.13297461
0.07323476 -0.011837015 -0.06366437 0.01575703 0.042252157 -0.015469421 0.1877337 0.14891951
00000000: e378 85ba 732d 123d 1ef9 203d 4673 0abe
00000010: 7ee9 7fbd c00f 1a3d 0fcd 213c 3754 17be
00000020: 16b9 45bd 23ba 53bd 27d1 a93b 0b1c 06be
00000030: fce9 4c3b 4f44 99bd 9350 8bbd 665d e13d
00000040: 9d52 80bd 4895 4b3d 7b56 8fbc cd04 edbd
00000050: 0b8d a83d 5371 fe3d 1d96 333d 72b2 ac3d
00000060: 9588 8a3d d7e0 8abd 75be 993c 69e6 47bd
00000070: bc00 f1bd aacf 98bd 061b e1bb 1546 d4bd
00000080: 73e3 1a3d 168b 95bd 11c0 c7bd c233 733d
00000090: 071e 363e 4025 a63d e354 1a3d d90c a93d
000000a0: ad9a 4e3d 4208 12bb 0ea3 3bbe 4cf1 cd3c
000000b0: 1a9a ef3d 8a1b f13b bc25 6e3d 43b0 c83d
000000c0: 76cd c03d e668 b5bc 9f5c b8bd ed5e 3f3e
000000d0: a24c 92bc 5f6d e53d d694 f1bd e4f7 b03d
000000e0: c9a0 3dbc 6b34 703d 2bf9 a33d 506e 12bd
000000f0: aac9 19bd 4adc cabd 2048 c73d 4794 27bd
00000100: f1a1 163e c3d4 2a3e ed01 de3d 3169 15bd
00000110: 581e a9bd 3f3b 27bd c4eb 0fbe abb2 66bc
00000120: 542a 12be d45f 003e ff70 023e 6e2f 113e
00000130: 5298 9f3d efb6 ec3d 832d 913d ef6e c6bd
00000140: cd95 513e d417 b9bc 4909 46be a2b5 593d
00000150: a42a 8a3d d142 dcbc 0b78 f73c 478e 403e
00000160: c445 20be 1f8e f7bd e8cd da3c 96fa 59bc
00000170: c0e4 253d ad81 2c3d 1c82 95bd da56 8c3d
00000180: 8a74 34bd a549 73bd fca0 143d 754a 3ebe
00000190: 7bce e4bd 483e f3bd 6ad3 7f3d be58 1ebd
000001a0: 5aa5 a73c 5bc1 073e e9ef 833d 99fa bcbd
000001b0: 7702 703d d17b 80bd 8d8f 0b3d fb04 c73d
000001c0: 34a8 cabc 33b3 14be 61a3 56bd 2071 653d
000001d0: 2675 2dbc 2ec2 5abd 2d2d c7bd 6e47 de3d
000001e0: 9438 733c 06a4 dabd 822c 28bd d3db d33d
000001f0: 538e 1fbe 5f2e 37bd 04e0 a7bd 70e7 bd3d
00000200: 7247 fe3d f347 153d 8d33 91bd ebe0 7cbc
00000210: 66d7 1b3e e6bb 5fbd 6e84 083d 78d3 31bd
00000220: cc0a bc3d 4c55 223e 33d6 813d 4afa dbbd
00000230: 28c3 273d 6559 2d3b 6a02 3bbd 1d2a 76bd
00000240: a838 f0bd 41de 05bd 5147 263e 60fc a2bd
00000250: 5aa4 d03d da5a bdbd 2d85 e5bd eb72 b23c
00000260: d78e 4d3e 2a1e bf3c 2ef2 bbbd f98d c2bd
00000270: 1954 3fbd d9f0 863d bbb0 903a 3d22 74bd
00000280: b628 053e 89c1 d63c 3b98 263b 6b64 1dbe
00000290: dc76 663c 630a 333d 8ce9 773e b4e8 1fbc
000002a0: 21e8 163e 8857 cd3c 5447 0d3d 26f2 cfbd
000002b0: de60 3cbe 5ef6 ffbd e992 72bc d369 5dbe
000002c0: 6713 473d a11b abbc 3f6a 173e 9d1e 5b3c
000002d0: 5dfe f4bd a720 0fbe 10fd 613e c1b4 683c
000002e0: 9330 9d3d d356 61bd a3b2 c83d 9b45 e2bd
000002f0: 73db f9bd 893f 24bc c288 9e3d 60b6 ffbc
00000300: b726 0b3e fcf9 edbd 52a3 bbbd 7cb8 5a3d
00000310: 460f 84bd 1040 0ebe d4a7 93bc ef0c bebd
00000320: 67fd 123e 8f2c 1fbe f257 9c3d 30be e9bc
00000330: 5f7e d53d e20c 2a3c 8b9b e03b 2793 ca3d
00000340: 4c1a 613c c436 f83c 4278 cbbd 87a7 64bd
00000350: 92f2 4c3e a48a 4c3c edf5 af3b 56e4 893d
00000360: f347 51bc b07d e6bc a74a 613d fafd f93c
00000370: b767 b0bd 2587 85bb dee4 883a 61ce 603a
00000380: 2671 483d 2c3e 10be e0ff 183e 5004 173e
00000390: 32a7 8cbc 03a6 bdbb 4161 6f3d f0b7 133e
000003a0: 4022 1f3d 2e23 08be c2dd 813e 6b3e 36be
000003b0: b217 0bbe 5419 4b3d 39f1 b9bc 85ac 3ebc
000003c0: d2f8 6f3e 7005 013e 8034 7dbe d278 973d
000003d0: fa7a 81bd be38 233e 863a 21bd 7f2a 083e
000003e0: 1bfc 953d 0af0 41bc 7762 82bd e314 813c
000003f0: 9910 2d3d 7473 7dbc 433d 403e 5b7e 183e

fc2.bias f4 [84]
-0.053585857 -0.13443352 -0.05589743 -0.015017143 -0.089368924 -0.16038819 0.03292581 -0.020155432
0.039267156 0.059744027 -0.06805556 -0.12664962 -0.102522224 0.029223515 -0.025799882 -0.08359479
-0.113326 -0.06451725 0.019733476 0.035583783 0.15585715 -0.08034772 -0.05075078 0.07391379
-0.12929252 0.067280576 -0.049900603 0.06045591 -0.010297769 0.0841764 -0.051118735 -0.12970482
-0.03568909 -0.09087073 -0.12846602 0.15127411 0.12079156 -0.024727784 -0.02124913 -0.116539255
-0.01834379 -0.12929931 -0.107175335 -0.069397196 -0.12844454 -0.15575846 -0.028828481 -0.030019674
-4.1594136e-05 -0.18166098 -0.12856905 -0.023964547 -0.13245247 -0.046347633 -0.018778602 0.008517306
-0.03284484 0.06311761 -0.12541898 0.09907583 -0.058312126 -0.019639315 -0.07808097 -0.03209839
-0.14929006 -0.055636138 -0.19979313 0.00319691 -0.008703972 -0.051418852 0.11712508 0.010206067
0.00023095265 -0.14882992 0.117752925 -0.039873887 0.009011965 0.028654847 0.039669074 -0.18658356
-0.123478144 0.027684253 -0.118769586 -0.02833745
00000000: d87c 5bbd f1a8 09be b4f4 64bd 770a 76bc
00000010: 0e07 b7bd cd3c 24be 37dd 063d 011d a5bc
00000020: 99d6 203d 27b6 743d b760 8bbd 70b0 01be
00000030: 2cf7 d1bd 2766 ef3c 465a d3bc bf33 abbd
00000040: 7617 e8bd 9f21 84bd 19a8 a13c 4dc0 113d
00000050: 0499 1f3e 588d a4bd 0de0 4fbd 1d60 973d
00000060: 4265 04be 66ca 893d 9364 4cbd 9ea0 773d
00000070: f9b7 28bc ad64 ac3d e161 51bd 57d1 04be
00000080: b92e 12bd 6f1a babd 998c 03be 9ae7 1a3e
00000090: 9161 f73d ec91 cabc a812 aebc 22ac eebd
000000a0: b745 96bc 0a67 04be be7e dbbd 1e20 8ebd
000000b0: f786 03be 257f 1fbe b529 ecbc d2eb f5bc
000000c0: 5d75 2eb8 5605 3abe 9ba7 03be 4c51 c4bc
000000d0: 9fa1 07be 04d7 3dbd 95d5 99bc 2c8c 0b3c
000000e0: 5088 06bd ce43 813d d56d 00be 45e8 ca3d
000000f0: b2d8 6ebd a1e2 a0bc eae8 9fbd 9a79 03bd
00000100: 7edf 18be b8e2 63bd 9296 4cbe 4083 513b
00000110: 1b9b 0ebc 939c 52bd 46df ef3d 5937 273c
00000120: e12b 7239 df66 18be 7228 f13d cd52 23bd
00000130: eca6 133c 92bd ea3c 0a7c 223d c30f 3fbe
00000140: 1ce2 fcbd 16ca e23c 783d f3bd f123 e8bc

fc3.weight f4 [10, 84]
-0.32268387 0.09279275 0.09770093 -0.37936231 0.07669834 -0.17505889 -0.2643842 0.15786093
-0.2780174 0.1389078 -0.19072041 -0.33108577 -0.31317425 0.12974232 -0.2047958 -0.13963948
0.09034172 -0.13620234 -0.4448587 -0.44940183 -0.38090986 0.059705283 -0.38457352 -0.44717613
0.015167608 -0.36273324 -0.38175803 -0.52973145 -0.07602835 -0.34053868 0.062355354 0.074903965
-0.23765081 -0.2958957 0.123149835 -0.35704395 -0.4443343 -0.114624746 -0.13767771 -0.06124173
-0.3551149 -0.2902685 -0.45233944 0.0044071134 -0.26321137 -0.19945075 0.05057068 -0.34927735
0.08778894 0.1046122 0.11008661 0.06717427 0.05953824 -0.26373544 0.088380896 -0.34451026
-0.19440624 -0.41850367 0.084487095 -0.16135792 -0.4872255 -0.30304834 -0.45699912 -0.00404282
0.1585127 -0.41072854 0.06507945 0.15572199 -0.28320077 -0.48857322 -0.3618248 0.09950735
0.09861161 0.095484465 -0.47182453 0.21609865 -0.47159612 -0.58598614 -0.36826882 -0.23477519
-0.30488157 0.035051346 -0.44768286 0.08668047 -0.21734953 -0.39791784 -0.40308937 0.11492062
-0.44988838 0.049182758 -0.28493103 -0.4408436 -0.43012685 -0.49859953 -0.34118384 0.09457256
0.14836909 -0.33390072 -0.14594708 -0.02814208 -0.049467362 -0.2555435 -0.39658764 0.08172365
0.23621877 -0.082976766 -0.28827024 -0.008309502 0.09282364 0.19594799 -0.28433055 -0.016244074
-0.2911372 0.0074925493 -0.38160166 -0.28094393 0.12292463 -0.1961435 -0.55749005 0.1658082
-0.4906503 -0.03861888 -0.37963 -0.4296055 -0.3233744 -0.12880932 0.0048924657 -0.40455008
-0.37953046 -0.14107172 0.0802954 0.1437427 -0.41484788 -0.16482598 -0.3727498 -0.022302901
-0.3338898 0.116734445 -0.047496855 -0.33696234 -0.37205207 0.106353305 -0.26565418 -0.38709626
0.07616649 -0.16286243 -0.47746468 0.11965905 -0.3090628 -0.101712964 0.092628494 0.07018774
-0.34807447 -0.40819964 0.22694424 -0.48062825 -0.4857816 0.06703816 -0.39110428 -0.1318765
0.012785182 -0.41961423 -0.48334306 0.06521667 -0.44959962 -0.33392298 0.10678544 -0.43961203
0.010974257 -0.38892967 -0.19734542 -0.021510279 -0.08099613 0.067586824 -0.08717088 -0.28429776
-0.3729362 -0.26572502 -0.47442427 -0.27408135 -0.42621094 0.07037168 0.21080895 -0.072606646
-0.37371767 -0.33817926 0.08724782 0.020710688 -0.3182176 0.08679164 0.047202058 -0.42254558
-0.26175556 0.04515431 -0.39935732 -0.4065796 -0.3259796 -0.007578543 0.0274023 -0.30258742
-0.31566355 0.14448906 -0.024357041 -0.34946838 -0.28391674 -0.23167498 -0.32043666 -0.01450966
-0.35285318 0.03243218 0.058084615 0.05754364 -0.38761055 0.18253158 0.026236836 -0.37640363
-0.41992497 -0.31761792 0.023775445 0.08136964 0.06136837 0.061087105 -0.25419918 -0.38453528
-0.2767684 -0.23931082 0.113358125 -0.3588015 -0.36319587 -0.32788122 -0.30514163 0.029988296
-0.30282938 0.07307066 -0.36967674 0.04742369 0.094964996 -0.014547136 -0.20556279 -0.3935986
-0.2634178 0.036439463 0.04610175 -0.21483378 -0.4643477 -0.26213974 -0.4052397 -0.41373095
-0.13411845 0.041662045 0.07894915 -0.3684369 -0.29259953 -0.23263022 0.09394885 -0.4448594
00000000: d236 a5be 200a be3d 6d17 c83d c73b c2be
00000010: 0514 9d3d a342 33be 5e5d 87be 4ca6 213e
00000020: 4c58 8ebe d93d 0e3e 364c 43be 1384 a9be
00000030: 6058 a0be 2cdb 043e fdb5 51be a7fd 0ebe
00000040: 1405 b93d a078 0bbe 85c4 e3be ff17 e6be
00000050: 9e06 c3be 878d 743d d2e6 c4be 45f4 e4be
00000060: 8f81 783c 2cb8 b9be ca75 c3be 7b9c 07bf
00000070: c0b4 9bbd 165b aebe 5468 7f3d 4067 993d
00000080: bc5a 73be a47f 97be fb35 fc3d 77ce b6be
00000090: c97f e3be 61c0 eabd 63fb 0cbe 9cd8 7abd
000000a0: 9fd1 b5be 139e 94be 0999 e7be 8c69 903b
000000b0: a4c3 86be d13c 4cbe 3423 4f3d 7bd4 b2be
000000c0: b0ca b33d ec3e d63d 1775 e13d aa92 893d
000000d0: 5fde 733d 5508 87be 0b01 b53d a663 b0be
000000e0: 6e12 47be 1d46 d6be 9207 ad3d 033b 25be
000000f0: 9f75 f9be 2729 9bbe cafb e9be a279 84bb
00000100: 2751 223e 034b d2be 6048 853d 9675 1f3e
00000110: b1ff 90be 4526 fabe 1a41 b9be 82ca cb3d
00000120: e2f4 c93d 5c8d c33d fc92 f1be f748 5d3e
00000130: 0c75 f1be 3003 16bf bb8d bcbe e868 70be
00000140: 7019 9cbe 0092 0f3d b036 e5be 8885 b13d
00000150: e090 5ebe e3bb cbbe bb61 cebe 815b eb3d
00000160: c557 e6be dc73 493d 7be2 91be 41b6 e1be
00000170: 9639 dcbe 7048 ffbe a6af aebe 42af c13d
00000180: 11ee 173e 09f5 aabe 2773 15be 388a e6bc
00000190: 4a9e 4abd 99d6 82be 890d cbbe bb5e a73d
000001a0: 55e3 713e b9ef a9bd 2898 93be 9424 08bc
000001b0: 521a be3d 97a6 483e c693 91be 4b12 85bc
000001c0: ef0f 95be 0f84 f53b 4b61 c3be e2d7 8fbe
000001d0: e9bf fb3d d7d9 48be abb7 0ebf a0c9 293e
000001e0: 8436 fbbe d52e 1ebd dd5e c2be 41f5 dbbe
000001f0: 5491 a5be 97e6 03be fa50 a03b 3021 cfbe
00000200: d151 c2be 1b75 10be ea71 a43d 4931 133e
00000210: f166 d4be 24c8 28be 10d9 bebe 93b4 b6bc
00000220: 9bf3 aabe 7812 ef3d 108c 42bd 5486 acbe
00000230: 9c7d bebe c3cf d93d d303 88be 7b31 c6be
00000240: 2dfd 9b3d 69c5 26be 4076 f4be ce0f f53d
00000250: 7b3d 9ebe e34e d0bd 02b4 bd3d 97be 8f3d
00000260: d136 b2be 8bff d0be 1264 683e e814 f6be
00000270: 5eb8 f8be 4e4b 893d d23e c8be a20a 07be
00000280: f178 513c add7 d6be be78 f7be 5190 853d
00000290: ec31 e6be f4f7 aabe 53b2 da3d d414 e1be
000002a0: 5fcd 333c ca21 c7be eb14 4abe 5336 b0bc
000002b0: 4de1 a5bd f66a 8a3d a586 b2bd 7a8f 91be
000002c0: 7ef1 bebe 1c0d 88be bde7 f2be 6454 8cbe
000002d0: 5238 dabe 071f 903d 4dde 573e cbb2 94bd
000002e0: ec57 bfbe d525 adbe fcae b23d 76a9 a93c
000002f0: 6bed a2be d1bf b13d f256 413d e557 d8be
00000300: d304 86be baf3 383d 9078 ccbe 342b d0be
00000310: cce6 a6be 6d55 f8bb ca7a e03c bdec 9abe
00000320: a79e a1be f1f4 133e 6b88 c7bc 85ed b2be
00000330: 895d 91be 353c 6dbe 4610 a4be edb9 6dbc
00000340: 2ca9 b4be 9bd7 043d 22ea 6d3d e1b2 6b3d
00000350: e474 c6be 8fe9 3a3e a2ee d63c fab7 c0be
00000360: 6800 d7be d19e a2be b9c4 c23c 20a5 a63d
00000370: 665d 7b3d 7936 7a3d 6526 82be cfe1 c4be
00000380: 96b4 8dbe e50d 75be 4e28 e83d d5b4 b7be
00000390: cff4 b9be 0ce0 a7be 863b 9cbe 04aa f53c
000003a0: 740c 9bbe 12a6 953d 4546 bdbe 583f 423d
000003b0: 027d c23d 1c57 6ebc 0d7f 52be c185 c9be
000003c0: b3de 86be 8c41 153d 30d5 3c3d 63fd 5bbe
000003d0: fbbe edbe 2e37 86be 947b cfbe 8bd4 d3be
000003e0: 5956 09be d2a5 2a3d 18b0 a13d c3a3 bcbe
000003f0: 9bcf 95be 9e36 6ebe 4168 c03d 9cc4 e3be

fc3.bias f4 [10]
-0.12942985 0.12318162 -0.079376 -0.032950837 -0.16255085 -0.26722524 -0.3184331 -0.03365748
0.2004378 -0.01895697
00000000: 4289 04be a546 fc3d e28f a2bd 75f7 06bd
00000010: bb73 26be bfd1 88be aa09 a3be 6ddc 09bd
00000020: 913f 4d3e a64b 9bbc
